data.pth (torch, 7639 bytes, 6 tensors)

l1.weight f4 [8, 110]
000000 9b c1 9d 3d 81 7c 37 be d0 99 b0 3e 0a 14 b9 bd
       0.07702943 -0.17918588 0.3449235 -0.09037025
000010 7a e6 72 3e 75 98 33 be 69 47 8c 3e a0 df 10 3f
       0.23720732 -0.17538626 0.27398232 0.56591225
000020 85 a0 b9 3e b2 17 6b be 5f 5e 94 be da 77 e5 be
       0.3625528 -0.22958258 -0.2897825 -0.44818002
000030 67 77 87 be e7 95 93 3f 98 a4 07 be 27 53 83 be
       -0.26458284 1.1530122 -0.13246381 -0.25649378
000040 93 ba 8c 3e f7 55 b1 be b2 0e a8 be 68 fd 12 bd
       0.27486095 -0.34635898 -0.32823712 -0.0358862
000050 55 77 6f be 7b a3 bd be 3b c4 d9 bd 34 ae 1b 3f
       -0.23385365 -0.37038788 -0.10633131 0.6081269
000060 96 63 66 be 56 46 c4 3e a4 8e 05 bf 96 cf b9 bd
       -0.22498927 0.38334912 -0.5217078 -0.09072797
000070 6e 36 39 be 5b 08 b4 be 12 83 4d be 8e 71 eb bd
       -0.1808717 -0.35162625 -0.2006953 -0.11496268
000080 7c cd 8b bd 95 0b 90 3d 89 d1 f0 bd 33 df 21 3f
       -0.068263024 0.07033459 -0.11758716 0.632312
000090 7b 15 82 3f f3 85 ce bd b5 01 56 3f cc 56 05 bf
       1.0162805 -0.100841425 0.83596355 -0.52085567
0000a0 94 72 65 3f e6 b3 67 3f e6 49 65 3f 5a 68 01 3e
       0.8962796 0.9050888 0.89565885 0.12637463
0000b0 f8 f7 8c bd ee 3a ad be 8d 96 b3 3e a9 5e 08 be
       -0.06883234 -0.33834022 0.350758 -0.1331736
0000c0 5a d0 3c 3b 8b 19 0b 3e 7e d5 46 bd 93 c8 29 3f
       0.002881071 0.13583963 -0.048543446 0.66321677
0000d0 a1 13 2d be 84 69 12 be 59 70 94 be 4e a5 0a 3f
       -0.16902019 -0.14298064 -0.28991964 0.54158485
0000e0 a1 34 ee be 1c dd d5 be 4a e9 99 be cc ca 0e bf
       -0.46524528 -0.41770256 -0.30060798 -0.55778193
0000f0 64 37 31 bd 73 ea b8 be 19 41 6a 3d cf 5f ab be
       -0.043265715 -0.3611637 0.05719099 -0.33471534
000100 9b 08 0f 3f d2 4f 09 3f 23 b4 d4 bd c8 33 d7 3e
       0.55872506 0.5363742 -0.10385921 0.42031693
000110 58 de a3 3d 22 a0 b7 3c 82 a1 01 be 8a 87 e1 3e
       0.08001393 0.022415224 -0.12659267 0.4404872
000120 56 ff 0a 3d 98 0f 8f be b0 89 2f bf 5c 20 81 bc
       0.033934914 -0.27941585 -0.6856947 -0.0157625
000130 81 21 8e be c6 e5 d3 3e d7 f6 16 3f 9b b3 c8 be
       -0.27759936 0.4138624 0.589704 -0.39199528
000140 b4 f4 f4 bd fb 29 a5 be ce ea eb bd 73 21 d2 be
       -0.11960736 -0.3225859 -0.11519395 -0.41041145
000150 9e c4 31 bc 42 20 f1 bd 5a 6a df bb 39 16 23 be
       -0.0108501 -0.11773731 -0.006818098 -0.15926446
000160 e4 52 9a 3c d2 aa 48 bf da fe a3 3e f9 e1 f3 be
       0.018838353 -0.7838565 0.32030374 -0.4763334
000170 44 fe 43 3f 18 e5 10 3f 92 b2 11 3f c2 1e 5d 3e
       0.76559854 0.5659957 0.569131 0.21593764
000180 d1 08 5e be 87 3f 14 be ce 18 a9 3e 6a 58 93 be
       -0.2168305 -0.14477359 0.33026737 -0.28778392
000190 cb ba 70 be 52 56 d6 be a8 00 01 be ee 07 34 be
       -0.23508756 -0.41862732 -0.12597907 -0.1758115
0001a0 dc 42 83 be fa 9c a6 be fe c3 32 3d 75 0c 33 3b
       -0.25636947 -0.3254164 0.043643944 0.0027320657
0001b0 81 9c b4 3e 78 9c e6 be 50 ac c2 39 a5 3c 57 3e
       0.35275653 -0.4504125 0.00037130946 0.21019228
0001c0 ed 65 98 be ce b6 d4 3e e9 49 66 3e df f6 09 3f
       -0.29765263 0.4154572 0.22489132 0.5389232
0001d0 63 66 15 3e 78 33 38 3e 87 5c a4 3e d3 7b df 3e
       0.14589839 0.17988384 0.32101843 0.43649158
0001e0 72 ee 1a 3d 13 ab 49 3f c1 99 d0 3e a3 25 30 bf
       0.037825055 0.78776664 0.40742305 -0.6880743
0001f0 bf 60 27 3f ce 65 d3 3c 62 10 af be 6c cf f7 3c
       0.65382 0.02580538 -0.34192187 0.030250274
000200 ff 3f 1b be 24 6b 56 3f 26 fb 2f 3e 47 e5 a3 be
       -0.15161131 0.83757234 0.1718565 -0.32010862
000210 17 2b bb 3e 5c b8 c2 3e a4 e6 0c be 20 f8 85 3e
       0.36556312 0.3803128 -0.13759857 0.26165867
000220 07 ad 9e 3f 74 3b 00 3f e5 b5 b9 3e d6 13 93 38
       1.2396554 0.5009072 0.36271587 7.013201e-05
000230 ea ba d5 be 76 97 6b 3e 14 e8 1e 3e 62 62 46 3e
       -0.41744167 0.23006997 0.15518218 0.19373468
000240 40 4c db 3e 64 04 d5 3e 10 05 30 bf 95 f1 bb 3e
       0.42831612 0.41604912 -0.68757725 0.3670775
000250 29 d9 16 3f dc 3b 22 3f 36 ff 1e 3f f6 d7 2c 3f
       0.5892511 0.6337259 0.6210817 0.6751703
000260 12 43 25 3f 30 ce 2d 3f c5 bd 99 bc ad a1 9c be
       0.64555466 0.6789274 -0.018767247 -0.305921
000270 08 68 8a be 74 6d 92 3e db eb 08 3f e5 d9 65 3e
       -0.27032495 0.2859913 0.53484887 0.22446401
000280 62 14 f7 bd 1b 8d 37 bf e6 7a 03 3f 7b 51 57 3b
       -0.120644346 -0.71699685 0.51359403 0.0032854963
000290 3b b9 c1 3e 01 c6 c1 3e 4b 93 1d 3f 37 55 09 3f
       0.37836632 0.37846377 0.61552876 0.5364565
0002a0 a5 3f a2 3e 62 89 25 3f 45 ee 07 3f b0 45 a0 3d
       0.31689182 0.64662755 0.53097945 0.07825792
0002b0 e0 84 2b 3d 1c 1f 9b be f1 dd 67 be bb 62 c5 be
       0.041874766 -0.30297172 -0.22643258 -0.38551888
0002c0 95 bd be 3e 8a 6a 86 3e 93 74 15 3e 73 56 1b 3f
       0.37254015 0.26253158 0.14595251 0.60678786
0002d0 eb d4 b6 3e 8a 4a f5 3e 30 dd 1b 3e 17 48 58 bf
       0.3570932 0.4790843 0.15221095 -0.84485
0002e0 c4 e3 5e 3e 0a 8a 6c 3d e8 06 0b 3f 75 33 46 3e
       0.21766573 0.05774883 0.54307413 0.19355567
0002f0 a9 2a 2d bf 9e 88 bc be 7d e1 84 3e 09 72 2a bf
       -0.6764322 -0.3682298 0.25953284 -0.66580254
000300 d1 ff 82 3e bb d1 02 be 43 ae b3 bd 89 9a d6 3e
       0.25585797 -0.12775318 -0.08773472 0.41914776
000310 15 71 68 3e 75 77 f8 3d 22 56 0a 3f 5f fe fe be
       0.22699387 0.121321596 0.5403768 -0.49803445
000320 6d 2a 0e bf 3a b3 28 3f fa d9 a8 3e 04 33 7d be
       -0.55533487 0.6589848 0.32978803 -0.24726492
000330 c1 9e 5b be 48 22 b9 3e 2f d3 0f 3f 3d db 01 3f
       -0.21447279 0.36158967 0.56181616 0.50725156
000340 c5 04 20 3e 2a 30 d9 bd 24 cb 09 3f aa 87 99 be
       0.1562682 -0.1060489 0.53825593 -0.29986316
000350 ce 0f 40 3f 99 13 08 3e f1 50 fc 3e 77 7f ae 3d
       0.75024116 0.13288726 0.49280503 0.08520406
000360 50 ea ef bd 7a 62 57 bd cc d7 34 3f 2f d7 8b 3e
       -0.117146134 -0.05258415 0.7064178 0.2731261
000370 cb 75 75 3e fe a0 a4 3e 50 29 6e 3e f2 fd 7c 3b
       0.23970716 0.32154077 0.23257947 0.0038603512
000380 e2 df 15 be d1 29 5e 3e 52 0a 0d be b2 68 44 be
       -0.14636186 0.21695639 -0.13773468 -0.19180563
000390 ba aa 10 3e a3 e0 62 3d 7b ea af 3e ed 58 40 be
       0.14127627 0.05539001 0.34358582 -0.18783922
0003a0 06 68 ab bc 97 41 0c 3e 31 47 b4 3d 37 5b c2 3e
       -0.020923626 0.13696896 0.08802641 0.37960216
0003b0 f5 ea a8 3e 31 8f a6 3e 26 d3 c2 3e df a5 0c bf
       0.32991758 0.3253112 0.38051718 -0.549406
0003c0 da bb b1 3e ff 3d 12 3f 95 b6 1e 3e 4d 27 1d be
       0.34713632 0.5712585 0.15499337 -0.15347023
0003d0 09 15 d2 3e b0 a3 14 be 4e 25 a9 3d f1 d7 84 3d
       0.41031674 -0.14515567 0.082590684 0.064865
0003e0 bb d4 9f 3c 2a 88 da 3e 5f 6c cc 3d 8b da c5 3e
       0.019510617 0.4268201 0.09981608 0.38643298
0003f0 09 c6 54 3e 25 a5 e3 3d 68 73 40 3b b6 73 97 be
       0.2077867 0.11115483 0.0029365662 -0.29580468

l1.bias f4 [8]
000000 b5 6f 42 3f 96 87 2f 3f 76 cd e5 3e f7 04 64 3f
       0.759517 0.6856626 0.44883317 0.89070076
000010 18 7e 02 3f b8 b0 5e 3f 3d 01 7f 3f b9 7d 0b 3f
       0.50973654 0.869884 0.99611264 0.5448871

l2.weight f4 [8, 8]
000000 f1 8e dd be 9f 17 49 bf 95 31 9b 3f 2b 74 3c bf
       -0.43273118 -0.7855167 1.2124506 -0.7361476
000010 0f b9 97 3f a9 a7 97 3f a8 78 97 3f a5 cb 97 3f
       1.185335 1.1848041 1.1833696 1.1859022
000020 5c 48 81 bf 7b 75 8e 3f 29 e0 03 3f c3 7f 54 bf
       -1.0100207 1.1129602 0.51513916 -0.8300745
000030 a7 54 19 3f e6 20 79 be cd a3 99 3f b2 32 5f be
       0.59894794 -0.24328956 1.2003113 -0.21796682
000040 7b 63 b3 be 18 25 f9 bd 16 08 05 be 02 a2 94 be
       -0.35036835 -0.12165278 -0.12991366 -0.29029852
000050 78 8e 56 bd 2a de 6e be 32 7e 6a be b9 25 97 3e
       -0.052381963 -0.23326936 -0.22899702 0.29520968
000060 47 2a 39 3f ee ef b4 bf 93 cd 9d 3f 1c d3 24 bf
       0.72330135 -1.4135721 1.2328361 -0.6438463
000070 f5 1c 94 3f aa 60 89 3f 9f 11 ad 3f 14 ec 7c be
       1.1571337 1.0732625 1.3521003 -0.24699432
000080 80 ee 0c be 18 94 5c bd 41 3b b4 be f4 3e 85 be
       -0.13762856 -0.05385217 -0.35201457 -0.26024592
000090 4c 1b 9a 3d 24 89 ea 3d c0 fa 31 bc 9b 67 ac be
       0.07524738 0.11451939 -0.010863006 -0.33672795
0000a0 67 27 4f bf 5b 5b bd 3f 64 1e 05 3f 88 f7 87 3f
       -0.809195 1.4793504 0.519995 1.0622416
0000b0 59 a4 47 3f ec 8e a0 3e a7 51 53 bf 55 15 e5 3e
       0.7798515 0.3135904 -0.82546467 0.44742838
0000c0 e5 be b0 3f 64 fa 40 3e 68 87 4d bf 51 fd 99 3f
       1.3808256 0.18845516 -0.8028474 1.2030431
0000d0 41 19 4e be a7 b3 8d 3f dd 6b 8c 3f 8b bd 92 bf
       -0.20126821 1.107045 1.0970417 -1.1464094
0000e0 88 1b 23 3f 0a c2 5b 3f 13 a2 8f 3e fd 40 8d 3f
       0.63713884 0.85842955 0.2805334 1.1035458
0000f0 39 6b bd bf 39 87 97 bf 75 99 a9 3f ec b2 d0 3f
       -1.4798347 -1.1838142 1.3249956 1.6304603

l2.bias f4 [8]
000000 66 d4 c3 3e 43 12 b6 3d 32 a2 99 be 95 c6 d5 3d
       0.38247985 0.08890202 -0.30006558 0.10438267
000010 e9 b6 3b be a5 1d df 3e 3d 1f b5 3e 26 db 7c 3e
       -0.18331493 0.43577304 0.35375395 0.24692973

l3.weight f4 [11, 8]
000000 c7 c6 fd bf b3 e7 3d 3d 8f a0 99 3e 57 60 80 bf
       -1.9826287 0.046363544 0.3000531 -1.00294
000010 4b f8 0d be 9a 92 08 3f 48 f2 f6 bf 6e 59 9b 3e
       -0.13864248 0.53348696 -1.9292688 0.30341667
000020 5e 9c 00 be 50 04 91 3f b8 a1 26 3d 97 82 dc bf
       -0.1255965 1.1329441 0.04068157 -1.7227353
000030 00 68 e6 b9 b7 12 f5 3e a8 9c b8 bf 07 f0 e4 bf
       -0.00043946505 0.4786584 -1.4422808 -1.788575
000040 43 72 bc 3e 8c ce be 3e 6b 51 97 3e 07 19 c7 3d
       0.36805925 0.37266958 0.29554304 0.097215705
000050 da e0 30 be 3c de ba bf e9 bd 0f c0 67 ee 2d bd
       -0.17273274 -1.459907 -2.2459662 -0.042463686
000060 de 08 1a 3e 19 13 0b c0 98 1a 4a be 28 14 3b 3f
       0.15042445 -2.1730406 -0.19736707 0.7307763
000070 5a df 7a 3e 50 f2 11 c0 a7 0c e9 3e f5 5d 1e c0
       0.24499264 -2.2804146 0.45517465 -2.4744847
000080 5d f1 d9 bf b0 c6 97 bf 8d ac 98 3e 60 e7 20 c0
       -1.7026783 -1.185751 0.29819146 -2.514122
000090 aa 34 ae be 78 85 89 bf 5c af cd 3e 0c ac 79 3f
       -0.34024554 -1.0743856 0.4017285 0.9752815
0000a0 d5 35 79 be e0 30 20 be 28 4b 56 3d c8 0d fb be
       -0.24336942 -0.15643644 0.05231777 -0.49033952
0000b0 54 cf 7e be ca 86 93 bf 5d 50 42 3f e1 34 e1 be
       -0.24883777 -1.1525509 0.75903875 -0.43985656
0000c0 3a af df be e5 42 8e bf 88 c0 77 bd 6e 7f 84 bf
       -0.43688375 -1.1114165 -0.060486346 -1.0351388
0000d0 c4 4a fa 3d 13 de 74 bf c5 5f 36 bf d0 e1 87 bf
       0.12221292 -0.9565136 -0.7123988 -1.0615788
0000e0 c3 cb eb bf d6 cf bb 3d df a4 12 be ac 25 12 c0
       -1.8421558 0.09170501 -0.14320706 -2.2835493
0000f0 2e 7c 5a 3e 71 67 a4 3e c5 15 f9 3e 9f 35 2b bf
       0.21336433 0.3211017 0.4864942 -0.66878694
000100 93 6d 20 3f 69 4b 94 bf 82 2c 33 3e 24 82 1a be
       0.62667197 -1.1585513 0.17497447 -0.15088707
000110 fc 59 10 be ee 8b 3a 3e 85 0a 12 bf 33 01 16 bf
       -0.14096826 0.18217441 -0.570473 -0.5859558
000120 42 53 33 3e 3b 1e 86 3e ed 74 22 be 90 ee 13 c0
       0.17512229 0.2619494 -0.15864916 -2.3114357
000130 cc 56 6a be b8 82 2d bf 63 8a cf bf d4 ee 16 3f
       -0.22884673 -0.67777586 -1.6214107 0.5895817
000140 76 b4 c2 3e 2a f5 41 3f 0f 07 b3 3e 9b 81 df 3e
       0.38028306 0.75764716 0.34966323 0.4365357
000150 32 e5 24 3e 64 64 c0 bf 3d dd 40 bf ac 52 0f c0
       0.16103056 -1.5030637 -0.7533758 -2.239421

l3.bias f4 [11]
000000 cb 2d 3d bd 32 6c 47 3f c6 b0 4b bd 4c 1f 93 bd
       -0.04618625 0.7789947 -0.04972913 -0.07183704
000010 49 c9 8b bb 1a 86 6a 3d 9f b9 36 bf 19 ae 8b be
       -0.0042659384 0.057256795 -0.71376985 -0.27281263
000020 91 c0 bb bd 76 79 9d be f4 3d a0 be
       -0.091675885 -0.3075673 -0.31297266
